bc_model.pth (torch, 297953 bytes, 6 tensors)

0.weight f4 [256, 26]
0.030889295 0.15393464 -0.015810197 0.27617934 -0.14077342 0.12640686 -0.09548013 0.11517559
0.17288478 -0.14387631 0.1704634 0.036704957 0.21645133 0.0068011405 0.037740093 -0.019424483
0.15944864 0.03725286 -0.10714579 0.034398656 -0.105948836 -0.090252995 -0.05704638 0.15640718
-0.14229628 -0.09874179 0.17542459 -0.17680967 -0.12297918 -0.40830255 0.30441517 -0.101524085
0.15140702 0.032637477 -0.0636798 0.12118997 0.030564845 0.15845464 -0.05455564 -0.03615704
0.16206285 0.016415475 0.1521347 0.24469441 0.12283517 -0.07626823 0.12267927 0.28840652
0.036930744 -0.22415656 -0.19771491 -0.059692077 -0.049913917 0.20578969 -0.05242906 -0.08096699
0.08927311 0.030292949 0.1534821 -0.13934317 0.012348205 -0.13385715 0.0604728 -0.06753892
-0.0011084985 -0.06352996 0.20277342 -0.110479295 -0.111204244 -0.11121131 0.18097694 0.06993727
0.19329457 -0.08659937 -0.14696074 -0.26227695 -0.15581211 0.09247504 0.07022445 0.16295768
-0.10127935 -0.13369468 0.10405494 -0.07927102 0.11902754 -0.046538487 0.11218743 -0.15237597
-0.09896996 0.059791192 0.041460425 -0.050001517 0.11689885 0.13332157 -0.1422182 -0.10470016
0.17957608 -0.06617595 -0.06952639 -0.18976092 -0.11230987 0.048990533 -0.025885984 -0.14235795
0.004600242 -0.1339633 -0.16638428 -0.107993826 -0.17164321 -0.12487461 0.19603942 0.037041426
0.0604351 -0.18291444 -0.12880394 -0.065278396 0.030666903 -0.17256677 -0.084501155 -0.117408566
0.00054349005 -0.07297544 -0.013590023 -0.13289413 -0.13461317 -0.114414506 -0.067130044 -0.15479071
0.16443746 -0.038921997 0.16698511 0.08074905 -0.28724313 0.3095219 -0.28829324 -0.0064186286
-0.16279021 -0.19497095 0.056110904 -0.04284036 0.07635255 -0.16094534 0.21455383 -0.19236177
-0.00776607 0.07147138 0.13175374 0.18883504 0.17004783 -0.1641108 0.040750023 -0.08673636
0.02181442 -0.29968876 0.16681877 -0.10383936 0.094020374 0.057800252 0.06372909 -0.1115458
0.16707268 0.043096602 0.025228396 -0.17282829 0.08232729 -0.029421464 -0.08984556 0.16845329
0.03248147 -0.10850643 -0.09926201 -0.020548418 0.09832333 -0.06129073 -0.1230448 -0.078304425
-0.15765925 0.058936052 0.14062336 -0.18463165 0.03442386 0.090074226 0.088950805 -0.1405398
-0.022079425 0.073978834 0.08986106 0.07589611 -0.0519318 0.020980686 -0.034644723 -0.058442816
0.12535878 0.16854213 0.010353178 -0.047345906 0.017584732 0.06462983 0.123488106 0.13129777
-0.21238473 -0.10663554 0.13089424 0.21608087 -0.035624564 -0.13780123 -0.090427876 -0.21791542
-0.2766096 0.009993014 0.21892567 0.39452282 -0.24370793 -0.10978284 -0.030950397 0.18971284
0.028369665 -0.050788343 0.08113624 -0.07469702 0.0048874184 0.2076526 -0.060965568 -0.026658595
-0.18244112 0.14391072 0.15271713 0.07560696 -0.13261394 -0.3529423 -0.20353547 0.23986636
0.117481254 0.23853584 0.10273935 0.049635455 -0.0019205064 -0.14914751 -0.16802685 -0.18343696
0.080282494 -0.096286744 -0.039468884 -0.112865865 -0.035736978 -0.13803338 -0.12814537 0.065053836
-0.058285013 0.121070966 -0.06291577 -0.14386436 -0.034602523 -0.095066786 -0.060000077 -0.1867017
00000000: 8c0b fd3c 0ba1 1d3e 6384 81bc 6167 8d3e
00000010: e826 10be cd70 013e 168b c3bd 2ee1 eb3d
00000020: b508 313e 5054 13be f58d 2e3e f057 163d
00000030: 6ba5 5d3e 1adc de3b 5b95 1a3d 1820 9fbc
00000040: 8146 233e 7496 183d 406f dbbd 9be5 0c3d
00000050: b4fb d8bd 90d6 b8bd 77a9 69bd 3429 203e
00000060: 1eb6 11be 2339 cabd 81a2 333e 980d 35be
00000070: 82dc fbbd 080d d1be 4edc 9b3e dceb cfbd
00000080: 710a 1b3e e0ae 053d 8e6a 82bd 7232 f83d
00000090: 2063 fa3c ef41 223e bc75 5fbd 6819 14bd
000000a0: cef3 253e bf79 863c 33c9 1b3e 2c91 7a3e
000000b0: 0191 fb3d 8532 9cbd 453f fb3d 05aa 933e
000000c0: b144 173d 4c89 65be c775 4abe ae7f 74bd
000000d0: 8972 4cbd 88ba 523e dbbf 56bd 05d2 a5bd
000000e0: d2d4 b63d eb28 f83c 692a 1d3e faaf 0ebe
000000f0: 2050 4a3c d911 09be 54b2 773d d851 8abd
00000100: 0a4b 91ba ff1b 82bd d6a3 4f3e f842 e2bd
00000110: 0dbf e3bd c1c2 e3bd 0552 393e 453b 8f3d
00000120: 03ef 453e 035b b1bd e07c 16be 2a49 86be
00000130: 368d 1fbe 8e63 bd3d d6d1 8f3d 61de 263e
00000140: 8c6b cfbd 42e7 08be c21a d53d d858 a2bd
00000150: b6c4 f33d 249f 3ebd 86c2 e53d 7208 1cbe
00000160: c3b0 cabd 9ce7 743d 68d2 293d 64ce 4cbd
00000170: aa68 ef3d 7385 083e a6a1 11be 0a6d d6bd
00000180: cbe2 373e 4287 87bd da63 8ebd b050 42be
00000190: b802 e6bd 4caa 483d d80e d4bc 48c6 11be
000001a0: a0bd 963b ad2d 09be a460 2abe de2b ddbd
000001b0: 3dc3 2fbe 42be ffbd 8fbe 483e c0b8 173d
000001c0: cc8a 773d ec4d 3bbe 2ee5 03be aeb0 85bd
000001d0: 2839 fb3c 58b5 30be f10e adbd e773 f0bd
000001e0: 0079 0e3a 2674 95bd b0a8 5ebc 6615 08be
000001f0: 09d8 09be 2752 eabd 7a7b 89bd 7581 1ebe
00000200: 4b62 283e ac6c 1fbd 25fe 2a3e c25f a53d
00000210: 8811 93be a879 9e3e 2c9b 93be 5c53 d2bb
00000220: 7ab2 26be 77a6 47be 8cd4 653d 6079 2fbd
00000230: ba5e 9c3d dbce 24be 00b4 5b3e 7cfa 44be
00000240: 847a febb 965f 923d 74ea 063e f95d 413e
00000250: 0521 2e3e a90c 28be 7fe9 263d d5a2 b1bd
00000260: 28b4 b23c ce70 99be 8ad2 2a3e bba9 d4bd
00000270: c18d c03d f5bf 6c3d 6684 823d 2072 e4bd
00000280: 1a15 2b3e 1086 303d c8ab ce3c e6f9 30be
00000290: 369b a83d 4805 f1bc f300 b8bd 057f 2c3e
000002a0: 4a0b 053d 9f38 debd e149 cbbd 2855 a8bc
000002b0: be5d c93d fd0b 7bbd e9fe fbbd 125e a0bd
000002c0: 6d71 21be ee66 713d 92ff 0f3e 1410 3dbe
000002d0: 0900 0d3d d678 b83d d72b b63d aae9 0fbe
000002e0: e9df b4bc 3782 973d 1309 b83d 6b6f 9b3d
000002f0: 70b6 54bd b0df ab3c a0e7 0dbd bc61 6fbd
00000300: 0d5e 003e 4f96 2c3e 60a0 293c c8ed 41bd
00000310: db0d 903c a55c 843d 55e7 fc3d ec72 063e
00000320: 627b 59be bc63 dabd 2409 063e 4e44 5d3e
00000330: 10eb 11bd c41b 0dbe 4032 b9bd 3825 5fbe
00000340: c69f 8dbe bdb9 233c 0d2e 603e e5fe c93e
00000350: 928e 79be d3d5 e0bd b08b fdbc 1544 423e
00000360: 8067 e83c 7007 50bd c22a a63d c0fa 98bd
00000370: a326 a03b e2a2 543e 08b7 79bd 2063 dabc
00000380: d8d1 3abe 555d 133e e161 1c3e d2d7 9a3d
00000390: f3cb 07be dab4 b4be 9a6b 50be 879f 753e
000003a0: 039a f03d bd42 743e 0269 d23d 8c4e 4b3d
000003b0: 80b9 fbba 20ba 18be 3b0f 2cbe e6d6 3bbe
000003c0: 266b a43d fc31 c5bd 20aa 21bd 3826 e7bd
000003d0: f060 12bd 9f58 0dbe 8a38 03be f23a 853d
000003e0: 44bc 6ebd 0ef4 f73d fcd9 80bd 2e51 13be
000003f0: 60bb 0dbd 60b2 c2bd a4c2 75bd bb2e 3fbe

0.bias f4 [256]
0.17421028 0.16563 0.12982729 -0.17492436 0.13386475 0.065175004 -0.20071058 0.2625585
0.008552367 0.037611797 0.20186572 0.13710664 0.19453102 -0.1004216 0.21993895 0.048324503
0.08215021 -0.13142486 -0.108878374 0.26987344 0.17618889 0.26979083 -0.01648119 -0.05498171
0.04579197 -0.108094804 -0.091973275 0.10030108 0.19469549 -0.15044925 -0.17335127 0.0075041237
-0.06909874 -0.08833646 -0.045398872 0.013732799 -0.05439034 0.18500005 0.22563834 0.16493136
-0.06288892 -0.026204474 0.16986094 0.029930735 -0.12725177 0.077669196 0.145932 0.013131471
-0.0064546475 0.0006005285 0.18890041 0.23621649 -0.13985088 0.15364417 0.08030845 0.11450031
-0.08620795 -0.11196304 0.17387201 0.09119291 -0.043646455 -0.05318829 0.19816422 -0.06364318
0.16698307 -0.052297894 0.07612605 0.09720034 -0.100457184 0.03436127 0.08170003 -0.18415855
-0.045308717 0.018671721 0.1768859 0.04342848 -0.16669093 -0.057480663 0.17629112 -0.010114268
0.18286161 0.07004459 0.13883367 -0.08427808 0.22986437 0.03352289 -0.040150985 0.249344
0.14080082 -0.13182367 0.012347763 0.18877321 0.080676734 -0.02964779 -0.13554205 -0.10229058
0.092099585 0.11205442 -0.16756244 -0.05516519 0.0908395 -0.17351697 0.27280712 -0.025849368
-0.065260276 0.046164915 0.17441033 0.053345144 0.2341179 0.16099346 0.037164897 0.10206047
0.11308939 -0.026646223 -0.16804907 -0.020861447 -0.0587362 -0.17804895 0.10404092 -0.08829141
0.22080852 0.11007764 0.10683027 0.07656168 0.09370514 0.2230796 0.19866711 -0.010716572
-0.020547546 0.0937595 -0.095925696 0.00871823 0.08278193 0.13064867 -0.1498439 0.0947989
0.016218642 -0.15471889 -0.03149036 0.0030750923 0.13157883 -0.09804928 0.090810925 0.22716878
-0.11062829 0.10681142 -0.050024588 0.095593244 0.12702614 -0.12080975 0.097424105 0.23051724
0.017812477 -0.109667026 0.10681415 0.111850634 0.05633597 0.0846408 -0.007874285 -0.045475557
0.19656461 -0.11078594 -0.06265629 0.14747842 -0.079660244 0.008375933 -0.05259333 -0.17383322
0.14144818 -0.08176405 -0.03218064 -0.007185825 0.0537329 0.2708769 0.22727787 0.019111898
-0.13100223 0.022319354 0.010749056 0.18526268 -0.02581834 -0.20649678 0.11454575 -0.028568152
0.08235818 0.05850618 0.121346876 0.10848205 -0.14508405 -0.15974304 0.17674842 0.17193754
-0.07360714 0.17494208 0.010023448 -0.051532418 -0.05455539 -0.10404097 0.19556811 -0.11070738
-0.05780061 0.23605497 -0.108171016 0.23036622 0.1365396 0.14602065 0.06636143 -0.008037663
0.13355933 0.047023974 -0.117777966 -0.103865 -0.15090376 0.015190946 0.012897901 -0.10350939
0.062722586 0.15407707 0.15379608 -0.0675959 0.08813632 -0.15742505 0.21769416 -0.161628
0.07181162 -0.062402003 -0.13202006 -0.16999319 -0.12598866 -0.12427002 0.14966182 -0.030124977
-0.11746424 -0.011590413 -0.058757402 0.024101263 0.19515467 -0.1488891 -0.17036976 0.088044986
0.14082229 -0.15181804 0.10179314 0.2292636 0.049858972 -0.10290188 0.096212104 0.1543895
0.030632548 -0.111092634 0.04202868 -0.04428163 -0.1369783 0.13197488 0.16187032 0.11537679
00000000: 2e64 323e e99a 293e 72f1 043e 5f1f 33be
00000010: d713 093e 797a 853d 1387 4dbe 116e 863e
00000020: 3a1f 0c3c d40e 1a3d e3b5 4e3e af65 0c3e
00000030: 2433 473e d7a9 cdbd ad37 613e eaef 453d
00000040: 5f3e a83d 3d94 06be a0fb debd da2c 8a3e
00000050: dc6a 343e 0622 8a3e 9003 87bc 8034 61bd
00000060: 5c90 3b3d cf60 ddbd 7c5c bcbd a76a cd3d
00000070: 415e 473e 5e0f 1abe ff82 31be 27e5 f53b
00000080: a483 8dbd bfe9 b4bd 2bf4 39bd 89ff 603c
00000090: 68c8 5ebd a770 3d3e bd0d 673e c4e3 283e
000000a0: e8cb 80bd c4aa d6bc 07f0 2d3e 4d31 f53c
000000b0: 4a4e 02be 0711 9f3d 336f 153e 6225 573c
000000c0: 8281 d3bb c96c 1d3a 1c6f 413e bce2 713e
000000d0: 1235 0fbe e654 1d3e c278 a43d 237f ea3d
000000e0: cb8d b0bd e14c e5bd 810b 323e 59c3 ba3d
000000f0: a0c6 32bd f7db 59bd 90eb 4a3e 5b57 82bd
00000100: 9cfd 2a3e 5136 56bd f9e7 9b3d f910 c73d
00000110: 7fbc cdbd 67be 0c3d 5852 a73d 0f94 3cbe
00000120: a295 39bd 70f5 983c 9421 353e 10e2 313d
00000130: 07b1 2abe d870 6bbd a985 343e 51b6 25bc
00000140: 1340 3b3e 8a73 8f3d 6a2a 0e3e fc99 acbd
00000150: 9161 6b3e 4c4f 093d 5c75 24bd 0954 7f3e
00000160: 172e 103e c9fc 06be 464e 4a3c c44d 413e
00000170: d839 a53d ecdf f2bc 89cb 0abe b97d d1bd
00000180: b59e bc3d ca7c e53d 7d95 2bbe e5f4 61bd
00000190: 0f0a ba3d 6fae 31be 60ad 8b3e 0ec2 d3bc
000001a0: 2ea7 85bd 6c17 3d3d 9f98 323e 7080 5a3d
000001b0: 9abc 6f3e 78db 243e 383a 183d 1405 d13d
000001c0: 699b e73d 2e49 dabc 0e15 2cbe a0e5 aabc
000001d0: 5f95 70bd 7752 36be 6813 d53d 20d2 b4bd
000001e0: a11b 623e 6370 e13d d4c9 da3d 5fcc 9c3d
000001f0: 7be8 bf3d fb6e 643e 646f 4b3e 9094 2fbc
00000200: 5453 a8bc fb04 c03d b174 c4bd e8d6 0e3c
00000210: 9389 a93d c4c8 053e ae70 19be ed25 c23d
00000220: f5dc 843c a16e 1ebe 09fc 00bd 7d87 493b
00000230: 9abc 063e 10ce c8bd 14fb b93d ef9e 683e
00000240: 1691 e2bd f2bf da3d 95e6 4cbd 64c6 c33d
00000250: 2413 023e 1a6b f7bd 4a86 c73d b60c 6c3e
00000260: 79eb 913c 1b99 e0bd 61c1 da3d f211 e53d
00000270: 8cc0 663d 2858 ad3d 2503 01bc 9444 3abd
00000280: 3c48 493e bde3 e2bd f151 80bd 9504 173e
00000290: e924 a3bd 363b 093c 1b6c 57bd 5601 32be
000002a0: cbd7 103e e973 a7bd d9cf 03bd 1277 ebbb
000002b0: 0817 5c3d 61b0 8a3e 88bb 683e 8e90 9c3c
000002c0: 7325 06be 14d7 b63c cf1c 303c 80b5 3d3e
000002d0: fc80 d3bc e473 53be f696 ea3d c207 eabc
000002e0: 68ab a83d 2da4 6f3d b684 f83d d62b de3d
000002f0: ea90 14be ae93 23be 8afd 343e 6510 303e
00000300: 57bf 96bd 0424 333e 6339 243c a813 53bd
00000310: 7975 5fbd 6f13 d5bd 0243 483e 8dba e2bd
00000320: 55c0 6cbd 65b8 713e c488 ddbd 1fe5 6b3e
00000330: 09d1 0b3e 7086 153e 80e8 873d 67b0 03bc
00000340: c7c3 083e 369c 403d 9335 f1bd 2cb7 d4bd
00000350: 8486 1abe 72e3 783c b851 533c bbfc d3bd
00000360: b374 803d 61c6 1d3e b87c 1d3e b86f 8abd
00000370: d180 b43d 0834 21be 38eb 5e3e cf81 25be
00000380: f811 933d 3e99 7fbd 4430 07be b212 2ebe
00000390: 2c03 01be 4881 febd f340 193e a8c8 f6bc
000003a0: 1791 f0bd b7e5 3dbc 9aab 70bd 0370 c53c
000003b0: a0d6 473e 6276 18be 6975 2ebe ee50 b43d
000003c0: b833 103e 3076 1bbe ec78 d03d 14c4 6a3e
000003d0: ec38 4c3d 39be d2bd da0a c53d 4818 1e3e
000003e0: 1cf1 fa3c 8984 e3bd 4426 2c3d a860 35bd
000003f0: 0a44 0cbe 6c24 073e 55c1 253e ab4a ec3d

2.weight f4 [256, 256]
-0.060734138 0.042871043 0.037177037 0.053715184 -0.00415422 -0.021457868 -0.06602139 0.036084943
0.0027256587 -0.062493168 0.051840305 -0.017864875 0.027352279 -0.009225324 -0.019110326 0.044928912
0.043516625 -0.029170223 -0.0079497285 0.03212197 -0.0063788937 -0.01959146 0.055838928 0.055654168
-0.016753465 0.038842127 -0.012192905 -0.007530885 0.040385827 -0.004849069 -0.0062171295 -0.022702994
-0.052182272 0.03904409 -0.049033806 -0.056244213 0.008459173 -0.016526885 -0.007855195 -0.00506482
0.0619447 -0.068956435 -0.046056222 0.01152917 -0.061959855 -0.05976941 0.038412176 0.014075949
-0.025389519 0.006958634 0.016891394 -0.01630725 0.042444613 -0.008894834 0.044340394 -0.048649393
-0.033892337 0.0105710775 0.023664363 -0.032043878 0.04508906 -0.057853904 -0.03293105 0.050747007
-0.055579223 -0.06844722 -0.025497427 -0.056387585 0.018592097 -0.01939573 -0.028524572 0.02640431
0.003972228 -0.056347445 -0.068938196 0.039252616 0.026953198 0.034345463 -0.063083835 -0.021217242
0.04378404 0.040798087 0.032802362 0.058021 -0.029451324 -0.048384473 0.035134703 0.029650824
-0.028781002 -0.005834587 -0.012443958 -0.06559233 -0.03425551 -0.019804582 0.013888107 -0.018235892
0.018201295 0.046447765 -0.021783127 -0.024582535 -0.03925617 -0.0047698617 -0.05719561 0.032641556
0.044532344 0.0069939783 0.05911038 0.023032356 0.031698357 0.048067123 -0.03867243 -0.01502462
0.02348034 -0.013084565 -0.044335008 -0.01962459 -0.030982502 -0.030392027 -0.057237547 -0.018852979
0.025793431 -0.037314046 0.017101632 -0.06099468 -0.048445567 -0.0031679266 0.048160896 -0.05771976
0.019590434 0.001860957 -0.0505125 -0.054288294 0.0228634 -0.041358273 0.043799467 -0.053231686
0.038790826 -0.031885043 0.016420422 0.0086142095 -0.057655677 -0.032777518 -0.02423936 -0.009993623
0.022639107 -0.035991307 0.00060947234 -0.0440327 -0.032552056 0.040785953 -0.026775897 -0.06468715
-0.005853254 -0.01725158 0.0077243075 -0.040354498 -0.006419166 -0.030833788 -0.032089595 0.014287062
0.009113679 0.011562549 0.051738743 -0.003872207 -0.0040371018 -0.008170992 -0.068903126 0.02444484
0.038612247 -0.0017328886 -0.04874357 0.046381265 0.014001593 0.045206673 0.017021053 0.00053937925
-0.025946401 0.002758519 0.016016541 -0.013613257 -0.049678396 -0.04137513 -0.067371316 -0.024444357
-0.020247227 0.041447558 -0.04330333 -0.061498307 0.03425669 0.05388782 -0.058393903 -0.010120783
0.010579515 0.03205048 -0.02091619 0.028466217 0.048021175 0.027217569 0.020364761 0.030283706
-0.06604317 0.0042549605 0.0481982 -0.058886945 -0.06516352 -0.060648676 0.010263132 0.047814384
-0.01580037 -0.018842757 -0.006259296 -0.051533297 0.0031723646 -0.05131689 -0.05079069 -0.052945416
-0.027912267 0.03197333 0.0024648686 0.037493225 -0.060297616 -0.059262153 0.028036144 0.039071176
0.053077035 -0.0672071 0.01947524 -0.061629467 -0.018484011 -0.0032546984 0.029226765 -0.019092634
-0.06027285 -0.07007179 -0.03405364 0.037303172 0.017418021 0.024916293 -0.05054746 -0.056158356
0.053393427 0.032786727 -0.03702112 -0.0046317764 0.045026414 0.046464004 -0.050289646 -0.040217128
0.014244144 0.03962347 0.005616311 -0.012289577 -0.0069157016 0.04929376 -0.05808486 0.02847325
00000000: 5cc4 78bd 8c99 2f3d f346 183d 7404 5c3d
00000010: 2020 88bb 69c8 afbc 3936 87bd cecd 133d
00000020: f7a0 323b d6f8 7fbd 8056 543d 5c59 92bc
00000030: e311 e03c d025 17bc 428d 9cbc 6107 383d
00000040: 7d3e 323d 64f6 eebc 943f 02bc 5492 033d
00000050: 0a06 d1bb 457e a0bc 5cb7 643d a0f5 633d
00000060: 903e 89bc ec18 1f3d c0c4 47bc a4c5 f6bb
00000070: 9c6b 253d f0e4 9ebb 10b9 cbbb a1fb b9bc
00000080: 14bd 55bd b2ec 1f3d acd7 48bd 5560 66bd
00000090: 5898 0a3c 6463 87bc 13b3 00bc caf6 a5bb
000000a0: bab9 7d3d 0839 8dbd 73a5 3cbd d8e4 3c3c
000000b0: 9ec9 7dbd c5d0 74bd 1656 1d3d cf9e 663c
000000c0: aefd cfbc 4105 e43b d25f 8a3c c896 85bc
000000d0: 67da 2d3d a3bb 11bc 469e 353d 9644 47bd
000000e0: b1d2 0abd 5032 2d3c c4db c13c 7140 03bd
000000f0: 4eaf 383d 37f8 6cbd b5e2 06bd 18dc 4f3d
00000100: 0aa7 63bd 0e2e 8cbd fbdf d0bc abf6 66bd
00000110: 744e 983c cbe3 9ebc 5dac e9bc da4d d83c
00000120: 7729 823b 94cc 66bd 782f 8dbd 5ac7 203d
00000130: f4cc dc3c d4ad 0c3d 1932 81bd c8cf adbc
00000140: e556 333d e51b 273d c55b 063d 6ea7 6d3d
00000150: e743 f1bc cc2e 46bd 68e9 0f3d 49e6 f23c
00000160: 23c6 ebbc 1030 bfbb bee1 4bbc 4655 86bd
00000170: 814f 0cbd 383d a2bc f18a 633c 7063 95bc
00000180: e21a 953c 0340 3e3d 8772 b2bc 5061 c9bc
00000190: 14cb 20bd 804c 9cbb f245 6abd 27b3 053d
000001a0: 8c67 363d be2d e53b ba1d 723d 5aae bc3c
000001b0: 23d6 013d 08e2 443d fb66 1ebd d329 76bc
000001c0: d859 c03c a560 56bc a098 35bd c0c3 a0bc
000001d0: 04cf fdbc b3f8 f8bc eb71 6abd 9071 9abc
000001e0: bf4c d33c 9dd6 18bd b918 8c3c 8fd5 79bd
000001f0: dc6e 46bd fd9c 4fbb 5c44 453d 8e6b 6cbd
00000200: 1e7c a03c 5beb f33a 32e6 4ebd 675d 5ebd
00000210: 064c bb3c 4b67 29bd 1267 333d 7809 5abd
00000220: 21e3 1e3d e499 02bd 1f84 863c 9d22 0d3c
00000230: 5c28 6cbd b841 06bd 9f91 c6bc 4bbc 23bc
00000240: a675 b93c 9f6b 13bd ffc4 1f3a a25b 34bd
00000250: 4e55 05bd 2c0f 273d 2059 dbbc b27a 84bd
00000260: a7cc bfbb 2f53 8dbc 301c fd3b c24a 25bd
00000270: de57 d2bb 2497 fcbc 6170 03bd 4814 6a3c
00000280: 8a51 153c d870 3d3c 01ec 533d dac4 7dbb
00000290: aa49 84bb a0df 05bc 151d 8dbd 8c40 c83c
000002a0: e027 1e3d 1822 e3ba 56a7 47bd 48fa 3d3d
000002b0: f066 653c a22a 393d bc6f 8b3c 2165 0d3a
000002c0: 8c8d d4bc 45c8 343b 1f35 833c 230a 5fbc
000002d0: 937b 4bbd f878 29bd f9f9 89bd 883f c8bc
000002e0: 83dd a5bc eac4 293d d55e 31bd a6e5 7bbd
000002f0: be50 0c3d 7ab9 5c3d 722e 6fbd a4d1 25bc
00000300: b455 2d3c 5d47 033d 6e58 abbc fc31 e93c
00000310: dab1 443d 61f7 de3c 00d4 a63c 8915 f83c
00000320: a441 87bd 326d 8b3b 7a6b 453d 7033 71bd
00000330: 7474 85bd bf6a 78bd b226 283c 04d9 433d
00000340: c76f 81bc 205c 9abc c81a cdbb 9414 53bd
00000350: 72e7 4f3b a931 52bd e609 50bd 4bdd 58bd
00000360: 44a8 e4bc 77f6 023d a289 213b 7f92 193d
00000370: a2fa 76bd dfbc 72bd 0eac e53c 1909 203d
00000380: 4e67 593d e0a3 89bd 8a8a 9f3c 2e6f 7cbd
00000390: c86b 97bc c74c 55bb f86c ef3c 2868 9cbc
000003a0: aae0 76bd cc81 8fbd d47b 0bbd 36cb 183d
000003b0: 3db0 8e3c 411d cc3c da0a 4fbd 4e06 66bd
000003c0: 11b3 5a3d 604b 063d 75a3 17bd 28c6 97bb
000003d0: 9e6d 383d 0a51 3e3d 84fc 4dbd b7ba 24bd
000003e0: 4560 693c 384c 223d 0809 b83b 395a 49bc
000003f0: 1c9d e2bb 41e8 493d 64ea 6dbd bc40 e93c

2.bias f4 [256]
-0.04646559 -0.0030978508 -0.009450402 -0.019138524 0.026947128 0.05318184 0.095022626 0.08232217
0.046943907 -0.058914788 -0.0042618117 -0.038162604 0.03051063 0.07547255 -0.02160639 0.04472758
-0.0179601 -0.051682517 0.07070747 -0.051077887 -0.07182713 -0.042206712 0.066321634 0.005146019
0.03681451 -0.011427636 0.098452196 0.013464442 0.037403554 0.010758104 0.05252508 0.020124929
-0.067420155 0.047058262 -0.047962785 0.051998466 0.01753369 -0.019824507 0.08101252 0.016735466
-0.065225154 -0.026728764 0.06847235 0.016316488 -0.05082184 0.028180713 0.006760806 0.049599268
0.018522315 -0.014287622 0.069910936 0.09085128 0.037263475 -0.038007617 0.040185757 0.0935335
-0.044679746 -0.027371371 0.034634948 0.00025675047 0.04629255 0.06538153 -0.012760002 0.07865452
0.027647123 0.087333016 0.009024498 0.050217196 0.041781247 0.086169004 0.07955758 0.05449727
0.025285788 0.019590745 0.10048764 0.0046391548 0.08071405 0.09587363 -0.0064594834 0.08408361
0.032890644 -0.018564655 -0.055430725 -0.037756115 -0.063411124 0.027278705 0.0628874 0.019842891
0.08144421 -0.06100765 0.011168759 -0.056207255 0.007867861 0.07960968 0.032734767 -0.0054623587
-0.0406601 0.011955525 -0.008403265 0.029921008 -0.04553108 -0.053847767 0.012550639 -0.021131774
0.054464318 0.033787154 0.035160713 0.086979784 0.00052823045 -0.0341409 -0.012807798 0.09393745
-0.021185504 0.02747983 -0.05402189 -0.036619216 -0.030010296 -0.04224568 0.00022271527 -0.002909333
0.028644565 0.024517091 0.061966278 0.09020231 0.018753465 0.015437661 -0.038979467 -0.042737193
0.020668183 0.024631528 0.09457249 0.020717371 0.09342069 -0.024107575 0.081986055 -0.0021383746
0.0031944376 0.0010358549 -0.024721496 -0.019076217 0.014424635 0.026945008 0.049237054 -0.044106707
0.008014467 0.0645392 0.014326387 0.0671734 0.013323213 0.04290196 0.0012691568 -0.05130931
-0.007337507 0.044452116 -0.052839365 -0.029119536 -0.0014531385 -0.0154492855 0.0759142 -0.042723008
0.045042194 -0.00032458577 0.02053692 0.030564055 -0.012711626 -0.06071289 -0.021671481 -0.018741682
0.01579392 -0.020062927 0.034259208 -0.021912716 -0.032866787 -0.002726969 -0.06452593 -0.01743002
-0.040193036 -0.006506726 0.0578117 -0.060167894 0.0009154538 0.0011432392 0.06202759 0.015548681
-0.036170237 -0.054407023 0.05242126 -0.059844933 0.036884166 0.0324457 0.0041538817 0.054416567
0.008562667 0.034522347 -0.02843805 0.039543826 -0.024552388 0.01830552 0.023369975 -0.032705847
-0.029645696 -0.039687574 0.00038346916 -0.018762458 -0.05438003 0.039135613 -0.024492597 0.012962121
0.06704138 0.029837359 -0.018254949 0.07098492 0.06754874 -0.041876376 -0.04842479 0.04983282
0.010651006 0.064246334 0.063792184 0.045846652 0.074906506 0.0022250488 -0.03325218 0.027915912
-0.047012556 0.07096096 0.030490192 0.05940895 0.08304597 0.029158173 0.0065238327 -0.011895429
-0.041889656 0.0021478755 0.06736757 0.03521013 0.06077286 -0.031197304 0.024225887 -0.0017680991
-0.041525368 0.08304689 0.06282786 0.02734917 0.04062753 0.0010300867 -0.044265166 -0.01771906
0.08436422 0.04592451 0.027853014 0.024802776 -0.015860712 -0.04064715 -0.032297216 -0.06467804
00000000: b452 3ebd 5005 4bbb dcd5 1abc 65c8 9cbc
00000010: 39c0 dc3c 33d5 593d 399b c23d 8798 a83d
00000020: 4148 403d a250 71bd aba6 8bbb 6450 1cbd
00000030: 6ef1 f93c 5a91 9a3d e2ff b0bc 4434 373d
00000040: 0f21 93bc 0cb1 53bd 14cf 903d 0c37 51bd
00000050: 1a1a 93bd f2e0 2cbd a3d3 873d f09f a83b
00000060: d0ca 163d fb3a 3bbc 4ea1 c93d f799 5c3c
00000070: 7834 193d c242 303c 8a24 573d 09dd a43c
00000080: 9413 8abd 2ac0 403d a074 44bd 58fc 543d
00000090: d0a2 8f3c 0167 a2bc e4e9 a53d d118 893c
000000a0: c494 85bd 48f6 dabc 3b3b 8c3d 28aa 853c
000000b0: 902a 50bd 3ddb e63c c089 dd3b 9a28 4b3d
000000c0: 1cbc 973c a116 6abc 772d 8f3d 3c10 ba3d
000000d0: 96a1 183d e0ad 1bbd d299 243d 7e8e bf3d
000000e0: 1c02 37bd ed39 e0bc 60dd 0d3d 779c 8639
000000f0: 429d 3d3d c0e6 853d 540f 51bc 9f15 a13d
00000100: 387c e23c a7db b23d 7ddb 133c 8cb0 4d3d
00000110: d022 2b3d 6079 b03d 16ef a23d 8838 5f3d
00000120: 2424 cf3c c57c a03c 77cc cd3d 0d04 983b
00000130: 684d a53d 6559 c43d 13aa d3bb 0734 ac3d
00000140: 57b8 063d e714 98bc 540b 63bd 28a6 1abd
00000150: b1dd 81bd 9777 df3c 1ccb 803d 8f8d a23c
00000160: 39cc a63d 28e3 79bd 2cfd 363c 9439 66bd
00000170: 33e8 003c 660a a33d e414 063d 96fd b2bb
00000180: 348b 26bd 1be1 433c d9ad 09bc e71c f53c
00000190: cc7e 3abd 7a8f 5cbd 32a1 4d3c 8b1c adbc
000001a0: fa15 5f3d 6664 0a3d ae04 103d 7522 b23d
000001b0: f278 0a3a 54d7 0bbd ccd7 51bc 4762 c03d
000001c0: 398d adbc 611d e13c 0f46 5dbd 08fe 15bd
000001d0: 27d8 f5bc ce09 2dbd ad88 6939 82aa 3ebb
000001e0: 02a8 ea3c 11d8 c83c 5ad0 7d3d fdbb b83d
000001f0: dea0 993c 3eee 7c3c efa8 1fbd 320d 2fbd
00000200: 5250 a93c 0fc8 c93c 39af c13d 7ab7 a93c
00000210: 5953 bf3d 407d c5bc 4ee8 a73d f923 0cbb
00000220: c559 513b 86c5 873a bc84 cabc ba45 9cbc
00000230: 4e55 6c3c c7bb dc3c cbac 493d 3ca9 34bd
00000240: 1c4f 033c 212d 843d 39b9 6a3c 3592 893d
00000250: 9b49 5a3c f7b9 2f3d d659 a63a b629 52bd
00000260: 786f f0bb 6c13 363d 176e 58bd 188c eebc
00000270: 3d77 beba 001f 7dbc e778 9b3d 52fe 2ebd
00000280: 2a7e 383d 2a2d aab9 0b3d a83c 7861 fa3c
00000290: 6c44 50bc 14ae 78bd 6488 b1bc 2888 99bc
000002a0: 4062 813c 025b a4bc 6253 0c3d 4c82 b3bc
000002b0: 539f 06bd f3b6 32bb 2c26 84bd 67c9 8ebc
000002c0: 74a1 24bd 6036 d5bb f6cb 6c3d 9c72 76bd
000002d0: 11fb 6f3a bed8 953a a410 7e3d e5bf 7e3c
000002e0: 3e27 14bd e6d9 5ebd adb7 563d f61f 75bd
000002f0: da13 173d c8e5 043d 491d 883b e8e3 5e3d
00000300: 6e4a 0c3c 4e67 0d3d eaf6 e8bc b5f8 213d
00000310: 1722 c9bc 75f5 953c 6472 bf3c 91f6 05bd
00000320: 88db f2bc 708f 22bd 5c0c c939 bab3 99bc
00000330: 98bd 5ebd aa4c 203d b3a4 c8bc 135f 543c
00000340: fe4c 893d 7a6d f43c 678b 95bc 8b60 913d
00000350: fe56 8a3d 9086 2bbd 1359 46bd 801d 4c3d
00000360: 8f81 2e3c 9593 833d 7aa5 823d b3c9 3b3d
00000370: 9568 993d 20d2 113b 7033 08bd e9af e43c
00000380: 3d90 40bd fb53 913d 91c6 f93c cd56 733d
00000390: 0114 aa3d 1fdd ee3c e0c5 d53b 0ce5 42bc
000003a0: 7d94 2bbd 5fc3 0c3b 02f8 893d 7f38 103d
000003b0: f6ec 783d 7d91 ffbc 5e75 c63c 90bf e7ba
000003c0: 8116 2abd 7d14 aa3d e5ab 803d 5e0b e03c
000003d0: 0e69 263d f903 873a 644f 35bd 9027 91bc
000003e0: 26c7 ac3d 571b 3c3d 012c e43c 312f cb3c
000003f0: 53ee 81bc a07d 26bd 164a 04bd ec75 84bd

4.weight f4 [4, 256]
-0.046970908 -0.057418313 -0.0064183166 -0.033505213 -0.0065723467 0.050183117 0.035838652 0.050179373
-0.10944782 0.021848105 0.1434772 -0.053300865 -0.0042420924 0.056105353 0.42840174 -0.045585006
-0.03625256 -0.022168377 0.22657333 0.0051261736 0.03794376 0.041549847 -0.08609027 -0.004191968
-0.046806213 0.0152643025 -0.10853473 0.05382038 0.19478011 0.15119414 0.04248791 -0.12272082
-0.03484915 0.00054968736 0.035033584 -0.24530625 -0.034622326 0.14026573 0.06956155 -0.034345325
-0.03605438 -0.021199085 0.15502842 0.10581736 -0.059414722 -0.05954324 -0.00741221 -0.025818964
-0.04125673 0.016364155 0.04958546 0.13304137 -0.0006790663 0.012171136 -0.15149991 -0.08272603
-0.012709163 -0.0052493177 0.083233096 -0.009586059 -0.21592715 0.01222143 -0.042145576 0.11875395
-0.05215266 0.06289215 0.00545843 0.22898553 -0.014760111 -0.030952992 0.066277176 -0.14009473
0.04931204 -0.0008024813 -0.06588648 0.082556054 0.08649169 0.059438724 -0.044888236 0.04606685
0.10380447 -0.014190508 -0.039166752 -0.0039872453 -0.008583796 -0.049024455 -0.030159317 -0.008239917
0.1104318 0.011387698 -0.0377822 0.04550351 0.03763712 0.10385592 -0.007416773 -0.061644807
0.029916532 0.10182734 0.16046666 0.03938786 0.022569755 0.015931502 0.21254556 0.043153647
-0.05521584 -0.033998974 0.15487371 0.061582386 -0.049963225 0.020610094 0.10814061 -0.02973991
-0.01677051 0.008645952 0.02019628 0.031512983 -0.016051827 -0.0065238927 -0.018083455 -0.09487447
0.01522189 -0.14102419 -0.030509494 0.0062033343 -0.112871006 0.019753695 -0.024493853 -0.018675266
0.03607902 -0.027478177 0.10324385 0.0016109376 0.06378789 -0.022831844 0.07402828 -0.035394266
0.12843426 0.1841374 0.048666023 -0.24899527 0.12663223 -0.22296776 0.00073790934 -0.061536886
0.12486021 -0.2239125 0.16538666 0.14846636 0.0037530505 0.10645918 0.096498154 0.029314913
0.0022289886 0.022857053 0.012884248 -0.043106265 0.15943162 0.036442637 0.13125524 -0.03225647
-0.03239779 0.084603995 0.2221182 0.18611011 0.17493561 -0.049491495 0.04460693 0.23572558
0.007056814 -0.03861303 0.05306585 0.026353702 0.014143943 -0.02789515 -0.03315612 -0.23838006
-0.01545288 0.0068617314 0.10254075 -0.041487195 0.27197045 0.09519631 0.1865732 -0.041040786
-0.055211365 0.0037017507 -0.199334 -0.046963513 0.075017765 0.0034718683 -0.03974087 -0.12694895
0.0063019367 0.18082535 0.020283626 0.12215859 -0.23172781 0.06370455 -0.0260174 -0.03896604
0.109645694 -0.04692576 -0.005123641 -0.022960495 -0.03422145 0.06878032 -0.6679595 0.14199392
0.1443868 0.024670048 -0.048498552 0.04869707 -0.14021021 -0.0011967048 0.02815329 0.15107375
0.12851499 -0.004044402 -0.17229502 -0.018080985 0.09618096 -0.04094281 0.16491082 0.1140706
-0.044965982 0.070926905 0.061533973 0.14979754 0.04837344 -0.027454697 0.2601383 -0.043810725
-0.018072823 0.046379495 0.17484199 -0.016978392 0.18267795 -0.02899317 -0.037111826 0.14048822
-0.045084037 0.078332365 0.060561556 0.108021766 0.08641078 0.31028616 0.01754646 -0.0045457333
-0.16701938 -0.038640622 -0.032408256 -0.29152247 -0.18162014 0.0067908242 -0.052455384 0.029912012
00000000: 9164 40bd 772f 6bbd be50 d2bb c33c 09bd
00000010: d75c d7bb d08c 4d3d 8dcb 123d e388 4d3d
00000020: 2e26 e0bd ccfa b23c b0eb 123e 0252 5abd
00000030: 4001 8bbb bace 653d 7957 db3e 58b7 3abd
00000040: 907d 14bd 759a b5bc d702 683e 76f9 a73b
00000050: eb6a 1b3d 2c30 2a3d 1850 b0bd c75c 89bb
00000060: dfb7 3fbd 2017 7a3c 7547 debd c272 5c3d
00000070: 7074 473e a3d2 1a3e cd07 2e3d 0e55 fbbd
00000080: fbbd 0ebd e518 103a 607f 0f3d 9031 7bbe
00000090: 24d0 0dbd d2a1 0f3e 4976 8e3d afad 0cbd
000000a0: c2ad 13bd b4a9 adbc c5bf 1e3e c6b6 d83d
000000b0: da5c 73bd 9de3 73bd 20e2 f2bb 4b82 d3bc
000000c0: d1fc 28bd 1f0e 863c 201a 4b3d ff3b 083e
000000d0: 5e03 32ba 7269 473c cb22 1bbe 446c a9bd
000000e0: 183a 50bc 7802 acbb 1d76 aa3d d80e 1dbc
000000f0: 021c 5dbe 653c 483c d7a0 2cbd 4535 f33d
00000100: 079e 55bd 99cd 803d a1dc b23b 2f7b 6a3e
00000110: 65d4 71bc 2191 fdbc 54bc 873d fe74 0fbe
00000120: 6cfb 493d 9c5d 52ba 7eef 86bd 2613 a93d
00000130: 8e22 b13d 0576 733d badc 37bd 98b0 3c3d
00000140: 7097 d43d 4e7f 68bc 516d 20bd 70a7 82bb
00000150: 0da3 0cbc decd 48bd ac10 f7bc b800 07bc
00000160: 112a e23d 7893 3a3c 82c1 1abd e361 3a3d
00000170: 6129 1a3d 6ab2 d43d 6708 f3bb 447f 7cbd
00000180: 8413 f53c da8a d03d 5f51 243e 2a55 213d
00000190: 35e4 b83c c882 823c 8ba5 593e e1c1 303d
000001a0: 012a 62bd 8242 0bbd 3797 1e3e d03d 7c3d
000001b0: 3da6 4cbd 80d6 a83c d378 dd3d 1da1 f3bc
000001c0: 4f62 89bc c0a7 0d3c ab72 a53c c213 013d
000001d0: 1f7f 83bc 61c6 d5bb c123 94bc 8c4d c2bd
000001e0: 3c65 793c a568 10be 0cef f9bc 5745 cb3b
000001f0: ea28 e7bd 80d2 a13c 55a7 c8bc dffc 98bc
00000200: 98c7 133d ea19 e1bc 8371 d33d 1926 d33a
00000210: 3aa3 823d d909 bbbc 249c 973d 94f9 10bd
00000220: 4584 033e 848e 3c3e 0656 473d 9ef8 7ebe
00000230: e1ab 013e a951 64be 4270 413a 1a0e 7cbd
00000240: b6b6 ff3d 5249 65be 1f5b 293e 9107 183e
00000250: bdf5 753b 4507 da3d d3a0 c53d d425 f03c
00000260: 3914 123b b73e bb3c 7418 533c 3290 30bd
00000270: 0b42 233e e044 153d c667 063e 5c1f 04bd
00000280: 8cb3 04bd dc44 ad3d f472 633e a693 3e3e
00000290: 5222 333e 98b7 4abd c2b5 363d 0c62 713e
000002a0: d93c e73b b228 1ebd 945b 593d b8e3 d73c
000002b0: ffbb 673c 5f84 e4bc b6ce 07bd e719 74be
000002c0: 142e 7dbc 60d8 e03b e200 d23d 7aee 29bd
000002d0: b63f 8b3e 48f6 c23d 0c0d 3f3e 621a 28bd
000002e0: 5025 62bd 1299 723b 361e 4cbe d05c 40bd
000002f0: eaa2 993d 4988 633b 53c7 22bd e8fe 01be
00000300: 7a80 ce3b 482a 393e d929 a63c 482e fa3d
00000310: 0e4a 6dbe 8877 823d 7122 d5bc db9a 1fbd
00000320: ec8d e03d 3a35 40bd 37e4 a7bb a617 bcbc
00000330: cb2b 0cbd b2dc 8c3d 65ff 2abf db66 113e
00000340: 22da 133e d718 ca3c 6ba6 46bd 9476 473d
00000350: 4493 0fbe c0da 9cba baa1 e63c 14b3 1a3e
00000360: 6f99 033e e786 84bb 1b6e 30be 931e 94bc
00000370: 86fa c43d a6b3 27bd 62de 283e d99d e93d
00000380: 402e 38bd 2042 913d 0c0b 7c3d 8764 193e
00000390: 3a23 463d ace8 e0bc d930 853e e072 33bd
000003a0: 750d 94bc 6df8 3d3d c709 333e 4516 8bbc
000003b0: ee0f 3b3e 1683 edbc 9202 18bd 25dc 0f3e
000003c0: 0aaa 38bd b86c a03d 650f 783d 843a dd3d
000003d0: 23f8 b03d d4dd 9e3e 98bd 8f3c 60f4 94bb
000003e0: 2107 2bbe a145 1ebd 85be 04bd 6f42 95be
000003f0: a1fa 39be 9085 de3b 75db 56bd 090a f53c

4.bias f4 [4]
-0.00443916 0.049499594 -0.0037160607 -0.052676752
00000000: 6076 91bb 16c0 4a3d 2789 73bb 94c3 57bd
